model.pth (torch, 2956 bytes, 1 tensors)

weight f4 [1, 70]
0	0xbf1b0918	-0.6056075
1	0xbf279988	-0.65468645
2	0xc0045728	-2.0678196
3	0xbf44562e	-0.76694
4	0xbf9a9921	-1.2077981
5	0x40f5b5de	7.6784506
6	0xbf2642eb	-0.6494586
7	0x3ec2c4c2	0.3804074
8	0xbea0028f	-0.31251952
9	0x3f31faf9	0.6952358
10	0xbfbeb335	-1.489844
11	0x3f684561	0.90730864
12	0x3ddf6e93	0.10909762
13	0xbe2fc530	-0.17165065
14	0x3ee63912	0.44965416
15	0xbe28d90b	-0.16489045
16	0x3ed4eada	0.41585428
17	0xbe2ec5ee	-0.17067692
18	0x3d9f2119	0.07769985
19	0xc02efc86	-2.7341628
20	0x3e50fbb1	0.20408513
21	0x3ffbe061	1.967785
22	0xbf82d7d4	-1.0222116
23	0xbeab1307	-0.33412954
24	0x3f12c505	0.5733188
25	0x3f171ee5	0.59031516
26	0xbedccd78	-0.4312551
27	0x3f06cf63	0.52660197
28	0x3e52fdcc	0.20604628
29	0xbca08c25	-0.019598076
30	0xbe805d72	-0.25071293
31	0xbdec9f21	-0.11553789
32	0x3ad51938	0.0016258126
33	0x405ec0d3	3.480519
34	0x40724a59	3.7857878
35	0xbe918013	-0.28418025
36	0x3f1bfacd	0.60929567
37	0x3ecf2236	0.40455788
38	0xc01a42db	-2.4103305
39	0xbf19078b	-0.59777135
40	0x401bc47c	2.4338675
41	0x3cba0406	0.022706997
42	0xbdfac841	-0.12245227
43	0xbe0bc88e	-0.13650724
44	0x3f2013ed	0.62530404
45	0xc011dd07	-2.2791154
46	0xbf226f52	-0.6345111
47	0xbec358ae	-0.38153595
48	0x3d6b8db7	0.057508197
49	0x3f498e81	0.7873307
50	0x3f13de12	0.5776073
51	0xbfa337ad	-1.2751366
52	0x3f0fc00f	0.56152433
53	0xbd174e46	-0.03693988
54	0xbf426ae2	-0.7594434
55	0x40f56ba4	7.6693897
56	0xbfa2989b	-1.2702821
57	0xbf046c2c	-0.5172756
58	0x3e7ad4b9	0.2449521
59	0xbef8f096	-0.48621053
60	0x3f5e5cf4	0.86860585
61	0x40227568	2.538416
62	0x3f92179d	1.1413456
63	0xbf29d2a8	-0.6633706
64	0x3ea8bc87	0.32956335
65	0xbf9d6e6f	-1.2299327
66	0x3f405a83	0.7513811
67	0xbe057ca3	-0.13035826
68	0x401ab516	2.4173026
69	0xbf34db21	-0.70646864
